using cuda
----------------------------------------------------------------------------------------------------
model loaded
PixelCNN(
  (layers): ModuleList(
    (0): Sequential(
      (0): MaskedConv2d(2, 512, kernel_size=(7, 7), stride=(1, 1), padding=(3, 3))
      (1): BatchNorm2d(512, eps=1e-05, momentum=0.1, affine=True, track_running_stats=True)
      (2): ReLU()
    )
    (1): GatedResBlock(
      (conv): MaskedConv2d(512, 1024, kernel_size=(3, 3), stride=(1, 1), padding=(1, 1))
      (y_embed): Linear(in_features=10, out_features=1024, bias=True)
      (batchnorm): BatchNorm2d(512, eps=1e-05, momentum=0.1, affine=True, track_running_stats=True)
    )
    (2): GatedResBlock(
      (conv): MaskedConv2d(512, 1024, kernel_size=(3, 3), stride=(1, 1), padding=(1, 1))
      (y_embed): Linear(in_features=10, out_features=1024, bias=True)
      (batchnorm): BatchNorm2d(512, eps=1e-05, momentum=0.1, affine=True, track_running_stats=True)
    )
    (3): GatedResBlock(
      (conv): MaskedConv2d(512, 1024, kernel_size=(3, 3), stride=(1, 1), padding=(1, 1))
      (y_embed): Linear(in_features=10, out_features=1024, bias=True)
      (batchnorm): BatchNorm2d(512, eps=1e-05, momentum=0.1, affine=True, track_running_stats=True)
    )
    (4): GatedResBlock(
      (conv): MaskedConv2d(512, 1024, kernel_size=(3, 3), stride=(1, 1), padding=(1, 1))
      (y_embed): Linear(in_features=10, out_features=1024, bias=True)
      (batchnorm): BatchNorm2d(512, eps=1e-05, momentum=0.1, affine=True, track_running_stats=True)
    )
    (5): GatedResBlock(
      (conv): MaskedConv2d(512, 1024, kernel_size=(3, 3), stride=(1, 1), padding=(1, 1))
      (y_embed): Linear(in_features=10, out_features=1024, bias=True)
      (batchnorm): BatchNorm2d(512, eps=1e-05, momentum=0.1, affine=True, track_running_stats=True)
    )
    (6): GatedResBlock(
      (conv): MaskedConv2d(512, 1024, kernel_size=(3, 3), stride=(1, 1), padding=(1, 1))
      (y_embed): Linear(in_features=10, out_features=1024, bias=True)
      (aux_shortcut): Sequential(
        (0): Conv2d(512, 1024, kernel_size=(1, 1), stride=(1, 1))
        (1): BatchNorm2d(1024, eps=1e-05, momentum=0.1, affine=True, track_running_stats=True)
      )
      (batchnorm): BatchNorm2d(512, eps=1e-05, momentum=0.1, affine=True, track_running_stats=True)
    )
    (7): GatedResBlock(
      (conv): MaskedConv2d(512, 1024, kernel_size=(3, 3), stride=(1, 1), padding=(1, 1))
      (y_embed): Linear(in_features=10, out_features=1024, bias=True)
      (aux_shortcut): Sequential(
        (0): Conv2d(512, 1024, kernel_size=(1, 1), stride=(1, 1))
        (1): BatchNorm2d(1024, eps=1e-05, momentum=0.1, affine=True, track_running_stats=True)
      )
      (batchnorm): BatchNorm2d(512, eps=1e-05, momentum=0.1, affine=True, track_running_stats=True)
    )
    (8): GatedResBlock(
      (conv): MaskedConv2d(512, 1024, kernel_size=(3, 3), stride=(1, 1), padding=(1, 1))
      (y_embed): Linear(in_features=10, out_features=1024, bias=True)
      (aux_shortcut): Sequential(
        (0): Conv2d(512, 1024, kernel_size=(1, 1), stride=(1, 1))
        (1): BatchNorm2d(1024, eps=1e-05, momentum=0.1, affine=True, track_running_stats=True)
      )
      (batchnorm): BatchNorm2d(512, eps=1e-05, momentum=0.1, affine=True, track_running_stats=True)
    )
    (9): GatedResBlock(
      (conv): MaskedConv2d(512, 1024, kernel_size=(3, 3), stride=(1, 1), padding=(1, 1))
      (y_embed): Linear(in_features=10, out_features=1024, bias=True)
      (aux_shortcut): Sequential(
        (0): Conv2d(512, 1024, kernel_size=(1, 1), stride=(1, 1))
        (1): BatchNorm2d(1024, eps=1e-05, momentum=0.1, affine=True, track_running_stats=True)
      )
      (batchnorm): BatchNorm2d(512, eps=1e-05, momentum=0.1, affine=True, track_running_stats=True)
    )
    (10): GatedResBlock(
      (conv): MaskedConv2d(512, 1024, kernel_size=(3, 3), stride=(1, 1), padding=(1, 1))
      (y_embed): Linear(in_features=10, out_features=1024, bias=True)
      (aux_shortcut): Sequential(
        (0): Conv2d(512, 1024, kernel_size=(1, 1), stride=(1, 1))
        (1): BatchNorm2d(1024, eps=1e-05, momentum=0.1, affine=True, track_running_stats=True)
      )
      (batchnorm): BatchNorm2d(512, eps=1e-05, momentum=0.1, affine=True, track_running_stats=True)
    )
    (11): GatedResBlock(
      (conv): MaskedConv2d(512, 1024, kernel_size=(3, 3), stride=(1, 1), padding=(1, 1))
      (y_embed): Linear(in_features=10, out_features=1024, bias=True)
      (aux_shortcut): Sequential(
        (0): Conv2d(512, 1024, kernel_size=(1, 1), stride=(1, 1))
        (1): BatchNorm2d(1024, eps=1e-05, momentum=0.1, affine=True, track_running_stats=True)
      )
      (batchnorm): BatchNorm2d(512, eps=1e-05, momentum=0.1, affine=True, track_running_stats=True)
    )
    (12): GatedResBlock(
      (conv): MaskedConv2d(512, 256, kernel_size=(3, 3), stride=(1, 1), padding=(1, 1))
      (y_embed): Linear(in_features=10, out_features=256, bias=True)
      (shortcut): Sequential(
        (0): Conv2d(512, 128, kernel_size=(1, 1), stride=(1, 1))
        (1): BatchNorm2d(128, eps=1e-05, momentum=0.1, affine=True, track_running_stats=True)
      )
      (batchnorm): BatchNorm2d(128, eps=1e-05, momentum=0.1, affine=True, track_running_stats=True)
    )
    (13): LogSoftmax()
  )
  (input_batchnorm): BatchNorm2d(1, eps=1e-05, momentum=0.1, affine=True, track_running_stats=True)
  (dropout): Dropout2d(p=0.7)
)

----------------------------------------------------------------------------------------------------
  0% |                                                                        |  1% |                                                                        |  2% |#                                
…
